…
lackbox model...\")\n","model_history = load_model_history( model_name, path_serialisation_histr )\n","model = load_model( model_name, path_serialisation_model )\n","\n","# check modelxw\n","model.summary()"],"execution_count":null,"outputs":[{"output_type":"stream","text":["Loading Blackbox model...\n","Loaded model from disk\n","Model: \"model_h5_N12\"\n","_________________________________________________________________\n","Layer (type)                 Output Shape              Param #   \n","=================================================================\n","dense_293 (Dense)            (None, 12)                108       \n","_________________________________________________________________\n","dense_294 (Dense)            (None, 12)                156       \n","_________________________________________________________________\n","dense_295 (Dense)            (None, 12)                156       \n","_________________________________________________________________\n","dense_296 (Dense)            (None, 12)                156       \n","_________________________________________________________________\n","dense_297 (Dense)            (None, 12)                156       \n","_________________________________________________________________\n","dense_298 (Dense)            (None, 12)                156       \n","_________________________________________________________________\n","dense_299 (Dense)            (None, 2)                 26        \n","=================================================================\n","Total params: 914\n","Trainable params: 914\n","Non-trainable params: 0\n","_________________________________________________________________\n"],"name":"stdout"}]},{"cell_type":"code","metadata":{"id":"BgpvrIkKNB8k"},"source":["class PredictionType(Enum):\n","  TruePositive = \"TruePositive\"\n","  TrueNegative = \
…
